…
2024-03-01 17:55:41.727919: I tensorflow/core/common_runtime/gpu/gpu_device.cc:1510] Created device /job:localhost/replica:0/task:0/device:GPU:0 with 1323 MB memory:  -> device: 0, name: NVIDIA GeForce MX350, pci bus id: 0000:01:00.0, compute capability: 6.1
Found 171 files belonging to 8 classes.
['Anthracnose', 'algal leaf', 'bird eye spot', 'brown blight', 'gray light', 'healthy', 'red leaf spot', 'white spot']
Model: "sequential"
_________________________________________________________________
Layer (type)                 Output Shape              Param #
=================================================================
rescaling (Rescaling)        (None, 224, 224, 3)       0
_________________________________________________________________
conv2d (Conv2D)              (None, 222, 222, 32)      896
_________________________________________________________________
max_pooling2d (MaxPooling2D) (None, 111, 111, 32)      0
_________________________________________________________________
conv2d_1 (Conv2D)            (None, 109, 109, 64)      18496
_________________________________________________________________
max_pooling2d_1 (MaxPooling2 (None, 54, 54, 64)        0
_________________________________________________________________
flatten (Flatten)            (None, 186624)            0
_________________________________________________________________
dense (Dense)                (None, 128)               23888000
_________________________________________________________________
dense_1 (Dense)              (None, 8)                 1032
=================================================================
Total params: 23,908,424
Trainable params: 23,908,424
Non-trainable params: 0
_________________________________________________________________
Epoch 1/40
2024-03-01 17:55:42.311074: I tensorflow/compiler/mlir/mlir_graph_optimization_pass.cc:185] None of the MLIR Optimization Passes are enabled (registered 2)
2024-03-01 17:55:43.690348: I tensorflow/stream_executor/cuda/cuda_dnn.cc:369] Loaded cuDNN version 8201
…
